Training data seize: (50000, 32, 32, 3) Test data size (10000, 32, 32, 3)
_________________________________________________________________
Layer (type)                 Output Shape              Param #   
=================================================================
mobilenetv2_1.00_96 (Model)  (None, 3, 3, 1280)        2257984   
_________________________________________________________________
conv2d_1 (Conv2D)            (None, 3, 3, 32)          1024032   
_________________________________________________________________
conv2d_2 (Conv2D)            (None, 3, 3, 32)          25632     
_________________________________________________________________
max_pooling2d_1 (MaxPooling2 (None, 1, 1, 32)          0         
_________________________________________________________________
dropout_1 (Dropout)          (None, 1, 1, 32)          0         
_________________________________________________________________
conv2d_3 (Conv2D)            (None, 1, 1, 64)          18496     
_________________________________________________________________
conv2d_4 (Conv2D)            (None, 1, 1, 64)          36928     
_________________________________________________________________
max_pooling2d_2 (MaxPooling2 (None, 1, 1, 64)          0         
_________________________________________________________________
dropout_2 (Dropout)          (None, 1, 1, 64)          0         
_________________________________________________________________
flatten_1 (Flatten)          (None, 64)                0         
_________________________________________________________________
dense_1 (Dense)              (None, 256)               16640     
_________________________________________________________________
dropout_3 (Dropout)          (None, 256)               0         
_________________________________________________________________
dense_2 (Dense)              (None, 10)                2570      
=================================================================
Total params: 3,382,282
Trainable params: 3,348,170
Non-trainable params: 34,112
_________________________________________________________________
Epoch 1/50

   76/50000 [..............................] - ETA: 1:51:31 - loss: 2.2929 - acc: 0.1316
  152/50000 [..............................] - ETA: 56:07 - loss: 2.2958 - acc: 0.1053  
…
